assets/potato_model.tflite (tflite, 741824 bytes, 16 tensors)

sequential_2/conv2d/Relu;sequential_2/conv2d/BiasAdd;sequential_2/conv2d/Conv2D;sequential_2/conv2d/BiasAdd/ReadVariableOp f4 [32, 3, 3, 3]
00000000: c14e 3339 4606 9cb9 d38f 85b9 4ae5 ff39
00000010: c908 dfb9 6e71 8db8 6bfd 04ba ef43 04ba
00000020: a4da e5b9 1c1c 07ba bde0 bf39 bfc4 70b9
00000030: dff1 9139 0818 9f38 540a c1b8 e947 6fb7
00000040: f704 0cb7 80b8 8db8 e144 f7b9 5ea3 053a
00000050: 822c b1b9 335b cab9 99a0 e3b6 9a50 1fb8
00000060: 00f9 3837 fd5a b3b9 a032 9db8 f736 72b9
00000070: 53f3 a939 f3f5 c0b9 b176 e3b9 4122 c439
00000080: dcb1 f8b9 4dfe d639 4746 1eb9 00b6 3139
00000090: a661 af39 bb0a 38b9 3f46 c4b9 5d34 61b9
000000a0: 88b3 eb38 a98a 8939 2aab 8738 957b dbb9
000000b0: 4d25 a239 9d4f dbb9 6524 eab9 9d73 db39
000000c0: b01a 01ba 1937 8139 be77 1ab9 8091 b8b9
000000d0: d491 173a d5a8 3c39 2a3e 4e39 268a 1639
000000e0: 88bf ceb9 c7fe 21ba eaf5 52b9 79fb e5b9
000000f0: b633 66b8 b983 1739 03f9 2eb9 d24b 9bb9
00000100: 80ec 4e38 42ce afb8 2654 32b8 59a3 f4b9
00000110: af13 0239 2308 05ba da83 a0b8 72c3 dab8
00000120: 9c40 9ab9 479c ccb9 36da ba39 1b1d c639
00000130: 734d 9db9 0de2 4539 0c21 2739 9c33 96b9
00000140: 5481 af39 0bd6 d2b9 ee7f 9bb9 af1e c638
00000150: da15 bbb9 ec0c 80b9 183e df39 99dc f0b7
00000160: 0ae8 1a39 c554 56b8 3fe0 80b8 6189 3db8
00000170: df4e d4b9 25d3 0aba c704 2fb9 355b 0839
00000180: 3ffa eab9 3d9d 61b9 0e63 0fba a254 123a
00000190: 9bef 8138 9432 103a ab40 e339 68be e339
000001a0: 8f0b 96b9 6d6c 4038 6065 acb9 83ef 8ab9
000001b0: 115b 9b38 d61d 38b9 1d05 18ba 3be2 2339
000001c0: bbb3 f639 293c 26ba fecb afb9 3408 d138
000001d0: c0e9 19ba 263b 53b8 00e8 1b3a 9761 d538
000001e0: 7dd1 f5b9 eae7 0c3a 3d6d a3b8 5c7d a439
000001f0: 736c 98b8 8596 cab9 2acd 97b9 178b bd38
00000200: ecad 31ba bf30 003a 8c8a 1c3a 6110 c137
00000210: 65b4 1f39 3f6d acb9 dfef 7e39 9fb2 bcb9
00000220: bf35 b6b9 e98e b039 72c5 c739 690d c0b7
00000230: 9f03 e839 b297 a3b9 db36 e339 bf93 b7b9
00000240: 31b4 cd39 e0a5 cf39 89f8 dc39 5551 4bb9
00000250: 6a6f 24b9 3323 a339 1d19 6a37 c210 9839
00000260: a11e 0439 37e7 0bba 5e8f eb39 4b36 17ba
00000270: f0e3 c439 6b1e f839 faf3 aab9 d7e5 e1b9
00000280: 03f1 86b8 9b45 5438 b1bc 0dba 34dc 90b4
00000290: 13ab 9b39 6cff 8ab9 f846 05ba 97a7 71b6
000002a0: ff2c edb9 940b a9b9 8943 ff37 acc0 55b9
000002b0: c576 cc39 4c41 f337 634a a5b9 1d5b 03b9
000002c0: 4014 9b39 a6de 1938 d678 9139 c428 0fba
000002d0: 0232 10ba 9ec8 1cba 8dcb 24b9 5564 f037
000002e0: cc16 abb8 f779 afb9 f253 dfb9 3662 a039
000002f0: f862 93b6 3f93 f037 ccfc b9b9 ce13 033a
00000300: 737d eeb9 860a a239 befd 2a39 70e2 b3b9
00000310: a335 8139 52c0 07ba c969 c439 ba90 2439
00000320: b3bb 013a 5ac7 1ab9 3677 aeb9 eac1 1138
00000330: e217 78b9 a31a b739 d7e2 14ba db4f 7d39
00000340: ff94 b1b8 a058 3539 5a80 c939 a4c7 f1b9
00000350: 8143 dcb9 1ab0 31ba 3457 47b9 85cd 4839
00000360: cb3b adb8 da08 1bb9 e6a5 cbb9 5e70 8939
00000370: 1380 33b9 e757 e8b9 fd6c 46b9 8bc3 0539
00000380: 71f6 e639 1535 0cba 8c07 0ab9 e1ab dd39
00000390: d6e2 d139 c94a 21b9 8760 6737 0ee2 cdb8
000003a0: d031 9937 adac 2839 39dd d839 6708 f0b8
000003b0: 5991 8cb9 b0f2 1538 b974 4f38 ea1d e238
000003c0: d4b1 bb39 005d de38 feef d239 a672 adb9
000003d0: f4f7 0aba 92f8 e438 7a94 94b9 58d8 7c39
000003e0: 9a4e 74b9 8a66 5938 0f36 b7b9 6709 17ba
000003f0: 995f e239 c96d 02b9 1b77 9fb9 cfab 7e38
0.00017100108 -0.00029759313 -0.00025474894 0.00048808224 -0.0004254042 -6.744532e-05 -0.00050731626 -0.0005045523
-0.00043841184 -0.000515403 0.00036597802 -0.00022961477 0.00027836763 7.586187e-05 -9.204881e-05 -1.4262253e-05
-8.345806e-06 -6.75777e-05 -0.0004716283 0.0005097891 -0.00033793232 -0.0003859639 -6.783823e-06 -3.798362e-05
1.10252295e-05 -0.00034209332 -7.495773e-05 -0.00023099394 0.00032415483 -0.0003680434 -0.00043385246 0.00037409554
-0.00047434762 0.0004100673 -0.00015094235 0.00016947836 0.00033451355 -0.00017551605 -0.0003743637 -0.00021477179
0.000112391135 0.00026233986 6.4691834e-05 -0.0004186301 0.0003092684 -0.00041830252 -0.00044659074 0.00041857074
-0.0004924936 0.00024645848 -0.00014731192 -0.0003520362 0.0005781923 0.00017991972 0.00019668849 0.00014356579
-0.00039434084 -0.00061796274 -0.00020118771 -0.00043865645 -5.4884433e-05 0.00014449553 -0.00016686697 -0.00029620394
4.9334485e-05 -8.383069e-05 -4.2516876e-05 -0.0004666101 0.00012405099 -0.000507476 -7.653954e-05 -0.000104314546
-0.00029421307 -0.00039026348 0.00035639264 0.00037787188 -0.00030003078 0.00018871595 0.00015938672 -0.00028648681
0.00033474958 -0.00040213796 -0.0002965922 9.447091e-05 -0.000356837 -0.0002442369 0.00042580138 -2.8712953e-05
0.00014773026 -5.1100524e-05 -6.145285e-05 -4.5189056e-05 -0.00040494555 -0.0005295745 -0.0001669108 0.00013003948
-0.00044818406 -0.00021516248 -0.00054697774 0.0005582069 6.195829e-05 0.0005500701 0.00043344995 0.00043438678
-0.0002861884 4.5877347e-05 -0.00032881927 -0.0002649986 7.4079384e-05 -0.00017558722 -0.0005799102 0.00015629169
0.00047054686 -0.0006341362 -0.00033530587 9.9674246e-05 -0.0005871318 -5.0361406e-05 0.00059473515 0.00010174809
-0.00046886122 0.0005375134 -7.792793e-05 0.00031373918 -7.268125e-05 -0.00038640588 -0.00028953823 9.03813e-05
-0.00067779305 0.0004890076 0.0005971573 2.301502e-05 0.00015230624 -0.0003288779 0.00024312687 -0.00035991237
-0.0003475379 0.00033675812 0.00038103346 -2.2894428e-05 0.00044253186 -0.00031202805 0.00043337684 -0.0003501456
0.000392349 0.00039605703 0.00042146843 -0.00019389887 -0.00015681764 0.00031116008 1.3953334e-05 0.00029004185
0.00012599911 -0.0005336883 0.0004492951 -0.0005768283 0.0003755386 0.0004732491 -0.00032606703 -0.00043086588
-6.43451e-05 5.0609564e-05 -0.00054068404 -2.698231e-07 0.00029691364 -0.00026511715 -0.00050841225 -3.6009349e-06
-0.00045237687 -0.00032242818 3.0429817e-05 -0.00020385039 0.00038998402 2.8998264e-05 -0.00031526675 -0.00012527076
0.0002957899 3.66854e-05 0.00027746585 -0.00054610916 -0.0005500616 -0.0005980822 -0.00015716087 2.865695e-05
-8.158162e-05 -0.00033469472 -0.0004259642 0.0003059075 -4.392463e-06 2.8678796e-05 -0.00035474298 0.00050002045
-0.00045488364 0.00030906888 0.0001630699 -0.0003431025 0.0002464476 -0.0005178499 0.0003746285 0.00015694174
0.0004948929 -0.00014760849 -0.00033276685 3.475129e-05 -0.0002366002 0.00034924326 -0.0005679554 0.00024157709
-8.4677704e-05 0.0001729452 0.00038433337 -0.00046115846 -0.00042011964 -0.00067782553 -0.00019010605 0.00019150048
-8.26042e-05 -0.0001478525 -0.0003884278 0.00026214396 -0.00017118482 -0.0004431598 -0.00018923353 0.00012756714
0.00044052632 -0.0005348486 -0.00013163517 0.00042280465 0.00040032592 -0.00015382016 1.37911475e-05 -9.817268e-05
1.8262217e-05 0.00016086055 0.00041363554 -0.00011445657 -0.00026811173 3.575039e-05 4.9461352e-05 0.00010782092
0.00035799912 0.000106031075 0.0004023313 -0.0003308255 -0.000530123 0.00010918187 -0.00028339383 0.00024113187
-0.00023298935 5.183233e-05 -0.00034944757 -0.0005761594 0.00043177305 -0.00012438664 -0.00030415584 6.071833e-05

sequential_2/conv2d/BiasAdd/ReadVariableOp f4 [32]
00000000: fd45 44bc 4935 403d bec5 a2bc 54ab 053d
00000010: c5b4 edbc 3407 8ebd ce7f e2bc 4a18 38bd
00000020: 9a62 77bd eafe 7c3c b57d b9bc a308 04bd
00000030: a87b a9bd f4ed 24bc 57fc adbb 2b51 a2bc
00000040: 6b88 6dbd a6aa f0bc 5449 1c3d 4516 db3c
00000050: a556 35bd d475 e4bc 4ff1 80bc 8344 9ebb
00000060: 9181 8bbc 8f9e 43bd 48bf 40bd 4c6e 6ebd
00000070: cf2a f13c cff6 51bd 6605 273c 2d9a 39bd
-0.011979577 0.046925817 -0.019869681 0.032634094 -0.029016862 -0.06934968 -0.027648833 -0.04494504
-0.06039677 0.015441636 -0.02264295 -0.0322348 -0.08275539 -0.010066498 -0.0053096223 -0.019814095
-0.057991426 -0.029378247 0.03815587 0.026744017 -0.044272084 -0.027888216 -0.015740065 -0.0048299446
-0.017029556 -0.047758635 -0.04705742 -0.058210656 0.029439358 -0.051260766 0.010194158 -0.04531305

sequential_2/conv2d_1/BiasAdd/ReadVariableOp f4 [64]
00000000: f7f5 5e3d 05e0 a0bc f211 ddbc 29d6 bbbc
00000010: fbbb 5abc f905 cabc 1d3d acbc 4769 3cbc
00000020: 6416 29bd 0188 c1bc c267 e4bc fbe2 88bc
00000030: 410c 11bd 02f7 cdbc 5db5 a2bc 3539 e7bc
00000040: 9ec4 64bc 2eb8 5dbc 48a4 923c a157 9dbc
00000050: d61d f9bc 0ee3 69bd 689d 12bd 8fbf a7bc
00000060: ede5 38bc d6ce 36bc 84b6 72bc b2f9 9cbc
00000070: ba1a 16bd 510d 3dbc 25b2 dd3c 0028 30bd
00000080: 9670 e03b 6943 d8bc 48b6 acbc 1539 383c
00000090: 4315 9bbc 737e 463d 8f5f 17bc 84da 04bd
000000a0: 054f 3fbd dc0c 63bd 6eb6 a3bc ec79 58bc
000000b0: 167f 01bb e991 2e3c cdde 863c edf4 02bc
000000c0: b695 5fbd 0eff 3c3d 44f9 8dbc 1990 d3bc
000000d0: 20ef 1a3c 6666 52bc 52aa fcbb 5597 153d
000000e0: 3751 6f3d f9ac 0abc 8678 16bd 6eec abbc
000000f0: feca 05bd 678d 0fbc 7791 973c 8feb 31bd
0.05443379 -0.01963807 -0.026986096 -0.022929268 -0.013350482 -0.024661051 -0.021025235 -0.011499709
-0.04128112 -0.023624422 -0.027881507 -0.016709795 -0.035412077 -0.025142197 -0.019861871 -0.02822552
-0.013962893 -0.013532681 0.017900601 -0.019206824 -0.030409735 -0.0571013 -0.035794646 -0.020477084
-0.011285287 -0.011157712 -0.014814023 -0.019162033 -0.036646582 -0.011538819 0.027062485 -0.043006897
0.006849359 -0.026399331 -0.021083012 0.011244078 -0.018931037 0.048460435 -0.009239092 -0.032434955
-0.04670622 -0.055432186 -0.01998445 -0.013212662 -0.0019759587 0.010654905 0.016463662 -0.007992965
-0.054586135 0.046141677 -0.017330773 -0.025825547 0.009456426 -0.0128417965 -0.0077107335 0.036521275
0.058427062 -0.008464091 -0.036736034 -0.020986762 -0.03266429 -0.00876174 0.01850198 -0.043437537

sequential_2/conv2d_2/BiasAdd/ReadVariableOp f4 [64]
00000000: 1aa8 3c3c 5653 d8bc ca03 b4bc 8da8 7fbc
00000010: bd8c 8dbc ea1d aabc d159 5dbc a72e 5bbc
00000020: e831 04bc 9466 06bd 25dd 81bc b66f 21bc
00000030: 9ad3 35bc 462c 423a e558 a53c db1e 13bd
00000040: 644f b7bc ea06 f2bc afea 053d 0a07 da3c
00000050: 5db5 33bc 5552 a2bc d2c1 c0bc 66eb 4e3a
00000060: 7ed4 29bc a105 053d 1c39 0f3c 1d54 3dbd
00000070: 146e 4fbc 17f2 11bd 5ecb 1dbd b9cf d2bc
00000080: dde2 da3b 0bbb f0bc 35ac f63b fd82 bebc
00000090: 0bbb e83c eb5f 0dbd 65d2 84bc a8d0 c53c
000000a0: 069e 97bc 4e15 adbc 67d1 30bd 7291 2bbd
000000b0: 8963 2ebc 522d 143d f8d9 20bc d67f 73bc
000000c0: 86bd b5bc 6058 22bc a202 17bd b4e2 b8bb
000000d0: 8a92 0f3d 5692 063d 501f e0bc 9878 07bd
000000e0: 01ff dbbc 054a 9ebc 4336 33bd e790 34bd
000000f0: 85fb a0bb 85a3 803d d469 803c 0993 283c
0.011514688 -0.026406925 -0.021974463 -0.0156041505 -0.017279023 -0.020766217 -0.013510183 -0.013377822
-0.008068539 -0.03281267 -0.01585252 -0.009853294 -0.011097813 0.000740711 0.02018399 -0.035918098
-0.022376724 -0.029544313 0.032694515 0.026614685 -0.010968533 -0.01981465 -0.02352992 0.00078933535
-0.0103656035 0.03247607 0.008741643 -0.046222795 -0.012660522 -0.035631265 -0.038524024 -0.025733816
0.0066798762 -0.029386064 0.007527853 -0.02325582 0.028409502 -0.034515303 -0.016213605 0.024147347
-0.018507969 -0.021128323 -0.04316845 -0.041886754 -0.010643848 0.036176033 -0.009817593 -0.014862021
-0.022185098 -0.009908766 -0.036867745 -0.0056422595 0.03505186 0.0328544 -0.027358681 -0.03307399
-0.026854994 -0.019322405 -0.04375292 -0.044083502 -0.004912796 0.06281189 0.015675463 0.010288962

sequential_2/conv2d_3/BiasAdd/ReadVariableOp f4 [64]
00000000: ee95 ce3c c545 19bc cadc debb 8875 aabc
00000010: 5693 a6bb c6ce 163d 5912 f9bb 809b 08bc
00000020: 5623 97bc 59e7 c5bc 7752 56bc 31e0 8abb
00000030: 9344 033c 7738 81bc a45c 1e3d 3b4e 8bb9
00000040: 8288 46bc e480 3e3d a5e9 8dbc 12f9 8ebc
00000050: edcf c33c 264f 9abc d1ce 99bc 04f8 15bc
00000060: 041a 9fba 8cc9 de3c 6c66 043d 9d37 5ebd
00000070: 0fd5 65bc 91e6 7cbc b663 36bc 27fd 82bc
00000080: ab6f c43c 0149 c8bc a1ea 7abc 2348 a0b8
00000090: 888e 0abd 7942 96bc 17fa 013d a13c e03c
000000a0: a4cc 223b 3654 e23c 7a4c e4ba 6d9c 063d
000000b0: 60e0 b4bc 7916 c1bc 8546 59bc c5a3 31bc
000000c0: fa40 02bb fe50 0a3d 40a7 5dbb 9c81 cb3b
000000d0: 5211 4dbb 3cc0 e0bb 0329 42bc c3ae 0a3d
000000e0: 5551 e4bc 806f 0dbb ab71 dbbc 4061 86bc
000000f0: 8365 62ba ef38 09bd dddf 13bd 98b3 48bc
0.025217976 -0.009355013 -0.0068012225 -0.020807996 -0.005083482 0.03681829 -0.007601064 -0.008337855
-0.018449467 -0.024158167 -0.013081185 -0.0042381515 0.008011955 -0.015773995 0.038662568 -0.00026570432
-0.012117507 0.04650964 -0.017323324 -0.01745275 0.023902858 -0.018836569 -0.018775376 -0.00915337
-0.001213849 0.027195714 0.03232424 -0.054252256 -0.014027848 -0.015435831 -0.011132171 -0.015989853
0.023979029 -0.024448873 -0.015314729 -7.642831e-05 -0.033827335 -0.018342244 0.031732645 0.02737266
0.0024841214 0.027628046 -0.0017417811 0.032864023 -0.022079647 -0.023570286 -0.013261442 -0.010842268
-0.0019875155 0.033768646 -0.0033821613 0.006210519 -0.0031290841 -0.0068588536 -0.011850598 0.033858072
-0.027870813 -0.0021581352 -0.0267876 -0.016403794 -0.0008636342 -0.03350156 -0.036102165 -0.01224985

sequential_2/conv2d_4/BiasAdd/ReadVariableOp f4 [64]
00000000: e55b 87bc cead 57ba 917c acb9 9ccd 4d3c
00000010: 174f a53c fcb7 51bc faff 54bc 6e4f 79bc
00000020: 9cd2 afbc e118 de3b 5110 1b3c bfb7 a8bc
00000030: 8935 173d 47f4 2ebc cf65 b7bc 2488 10bc
00000040: 3602 a83b bf93 29bc 79e3 fa3c 5334 9a3c
00000050: 037b 653d b7b3 f1bc cee5 573d 51ba 093d
00000060: dccb 153d cde0 38bc 933b 043d d74a 2e3d
00000070: 3124 7abc 47ab 37bd fd7a 3bbc b3d0 5abc
00000080: 0cb8 c9bb 986a 08bc ff37 3abd aa74 7ebb
00000090: 018d 80bc 3da7 d4bb 05c5 79bb 391d f8bc
000000a0: 3473 19bd 3100 113c 298f a6ba 4a9c 9abc
000000b0: 08b6 553c fa37 03ba e23f 263b e582 adbc
000000c0: 9ec2 263d 5a35 84bc f830 80ba 9f46 363d
000000d0: 9cf8 e5bb d8bf 1f3d 59f8 04bd b55b 25bc
000000e0: 9821 9dbc a71e d9bc 2fd8 913c 65c6 06bc
000000f0: 5323 cabb 590e 98bc 31e3 cc3c 5c7e 793d
-0.01652331 -0.0008227498 -0.00032899206 0.012561228 0.020179315 -0.012800213 -0.013000483 -0.015216691
-0.021462731 0.006777868 0.009464339 -0.02059543 0.03691629 -0.010678357 -0.022387413 -0.008821521
0.0051272167 -0.010350167 0.030626046 0.018823778 0.056025516 -0.02950464 0.052709393 0.03362495
0.03657137 -0.011284065 0.032283377 0.04255184 -0.015267418 -0.044841077 -0.011442897 -0.013355422
-0.0061559733 -0.008326195 -0.04546356 -0.0038826861 -0.015692236 -0.006489663 -0.0038111818 -0.030287372
-0.037463382 0.008850143 -0.001270746 -0.018873353 0.013043888 -0.00050055946 0.0025367667 -0.02118058
0.040712945 -0.016138721 -0.0009780219 0.044500943 -0.007018162 0.039001316 -0.032463405 -0.010092665
-0.019181058 -0.026503874 0.01780328 -0.008226012 -0.0061687618 -0.018561529 0.025010677 0.06091152

sequential_2/conv2d_5/BiasAdd/ReadVariableOp f4 [64]
00000000: 4871 53bc babb e5bc 7ada 213c 8f73 dfbb
00000010: e02b 383d 30f8 f83b aebd cfbc 508b f73c
00000020: ac4d 573b 7743 c0bc 3426 1ebc 4dc5 b53c
00000030: 3359 3bbb 5c18 9ebc 700c 9fbc b7c1 dabb
00000040: 4070 13bc 7b31 343d 7041 f73c e613 9c3c
00000050: a21c 07bd 9278 6a3c 999b a7bc e516 043d
00000060: abce d73c 0768 00b8 0a17 49ba a72d c1bc
00000070: c718 81bc 1abb a0bc 47cf 15bc 25f2 2b3d
00000080: c089 8ebc fcc4 053d fe5b 5fbc 005b dcbb
00000090: 7cca 02bd 6654 603d 89fa 5abc ae96 53bc
000000a0: 598d a6bc 0b55 c43c 0df6 b0bc 6115 11bb
000000b0: 668f ea3c 5ffb 8abc 89ac c93c 4038 83bc
000000c0: 1a20 043d ba9f 103c 132f 9a3c dc4f d1bc
000000d0: af91 a9bc db89 0bbc e040 7fbc 412e 81bc
000000e0: 4c6c 97bc a89d 08bb 2a71 78bd 2e53 9dbb
000000f0: 1b36 e83b 51d9 2b3d 34f9 d9bc 9f0c f63c
-0.012905426 -0.028043617 0.009878749 -0.0068191956 0.044963717 0.0075979456 -0.025359001 0.030217797
0.0032852693 -0.02346967 -0.009652663 0.022188807 -0.0028587102 -0.019298725 -0.01941511 -0.0066759246
-0.00899893 0.0439925 0.03018257 0.019052457 -0.03298629 0.014310973 -0.020459937 0.032248396
0.026343664 -3.061446e-05 -0.00076709746 -0.023581339 -0.015758885 -0.019620467 -0.009143657 0.041978974
-0.017399669 0.032658562 -0.0136327725 -0.0067247152 -0.031931385 0.05476799 -0.013365396 -0.012914343
-0.020331072 0.023966333 -0.021601701 -0.0022137987 0.02863283 -0.016965566 0.024618404 -0.016018033
0.032257177 0.008827144 0.018821275 -0.025550775 -0.02069935 -0.008516754 -0.015579432 -0.015769126
-0.018484257 -0.0020845924 -0.060654797 -0.0048011756 0.007086528 0.041955296 -0.026608087 0.030035315

sequential_2/conv2d_1/Conv2D f4 [64, 3, 3, 32]
00000000: 034e 99bd 65f1 e2bc 8f09 2e3d b443 4c3d
00000010: 1102 18be 8415 afbd 1719 213d e1d6 b6bc
00000020: 59d3 2dbc 6e46 06bd 4166 573d cfae 80bd
00000030: dc95 9fbd ab7a 8d3d 176e 113b 1727 0bbd
00000040: eeb0 6cbb 90c6 efbd 32c8 88bd d2e1 733c
00000050: 4216 3a3d 8d1f 51bd 6749 01bd 451e 893c
00000060: fb57 8fbd 14e7 f4bc 237c afbd 9850 abbd
00000070: eef2 2c3d de16 793d aa20 e9bc a9be 16bd
00000080: 1686 9cbd 857c 8b3b 6bfd 973d 30b6 b53d
00000090: 7b9c 0ebe ee36 0ebd 3745 113d d440 063d
000000a0: 7c8a 8dbc cbeb d03d 154b 4cbd 5457 90bd
000000b0: 3f85 4b3d dcde f9bc c9bf 4a3d 5021 abbc
000000c0: 8e92 c5bd 38b3 b7bd 7d7a 503b 0b45 ebbd
000000d0: 18f8 d43b 96e5 353d 2442 643c 9a9e 49bb
000000e0: 6d42 90bd a57c 6b3d 3f34 8ebd bba3 903c
000000f0: 15cb dc3c fec8 27bc c162 813d 9a91 1c3c
00000100: 565a 26bd 99c8 bebc d53c d53c 7228 bdbc
00000110: 13fa 74bd 12a9 573c 1165 023d cbff 963c
00000120: fbcc 80bd d599 e43d f767 48bc 6d09 99bd
00000130: 3968 8fbd cb14 febb 3b5c 1c3d 60cc 03bd
00000140: 2706 9dbd ff9f b8bd 08a0 97bd ecb9 7a3c
00000150: 0690 f93c 66c8 cabd 11ff 2fbd 67b2 be3d
00000160: 91f8 c7bc a0ef cebc f2a0 1abc b66c 3abc
00000170: b89c 83bd a979 b53c 8262 98bd e38d 863c
00000180: e8a5 103d 66a5 023c dcb7 933c 73e9 5a3d
00000190: 373c 83bd fe81 86ba e8ca 95bd 8867 c4bc
000001a0: ed8c 443d fd31 20bd 1b89 063d 37ac c1bd
000001b0: c76b bebd 2a4b a93d 15f0 abbd d363 3fbd
000001c0: 7c22 5dbd 1bd1 99bd 528b b2bd c280 493c
000001d0: dd81 8bbb 5eb9 b33c 01dd 5dbd 131a 3a3d
000001e0: bda7 88bd 5e5f 9bbc a2ca e83c f48b 153c
000001f0: fd58 0cbd 7413 a8bd c046 8cbd 7e64 c4bb
00000200: 4894 aabd cc9e 8fbd 0c5e c5bc f9d4 28bd
00000210: 7646 cabd e1c8 d7bd 3fcf 06b9 1e9b 763c
00000220: bacb eebc 7edd 033d 8902 00bd 8110 abbc
00000230: 2534 373c 0697 343d ea0c 843d 1ccd 3cbd
00000240: 59df 843c bb34 88ba ba55 b9bd 45d8 b7bc
00000250: 1fe8 f8bc 3609 9bbc bcaf 343d 7463 873d
00000260: 41d0 c23d 20f1 8c3d 2cd8 88bc ac59 4c3b
00000270: a613 1f3d 0c06 f63c 8fff b9bd b355 ac3d
00000280: ec73 9d3c 7311 033d 6f79 533d b9bd 9d3d
00000290: 02d7 3abd a313 99bd efe9 7dbd 53f6 3d3d
000002a0: 9308 97bd 24c3 cebc 1729 963c cc47 91bb
000002b0: e6be 50bd ec35 03bd 6493 9dbd 3bcf d4bd
000002c0: 3888 153d e5d9 fabd 3792 60bd b239 debd
000002d0: 5577 1dbd ea3f 59bd 0e69 5abd 3a1a d13d
000002e0: 05cc 173c 1d69 b13b 7a03 9e3c debd f63c
000002f0: efbd c83d 8775 a93d 3a32 78bd c1c4 be3a
00000300: e802 423c d698 e4bb 6fab 543d 3d77 8a3c
00000310: e5b6 c5ba 2504 27bd d76d 5ebd 6b7b 01bd
00000320: 288d aebc fe78 143c 7c15 14bc 144f 10bd
00000330: c240 8f3b 1e95 9b3d 4d31 813c 2812 a0bc
00000340: a026 97ba ead3 92bb 83ec 4a3d 59de ddbc
00000350: d26e 79bd ece1 12bc ecc2 483d 584b ed3d
00000360: 0243 9d3d 48d1 953c 5c22 6dbc 360e 7f3d
00000370: 83e4 463d 41c4 1a3b 8ad3 acbc 93eb be3d
00000380: f20d 5f3d f972 6fbd 0d25 853d cf87 ba3d
00000390: d467 85bd 3420 c8bd 7325 26bd ec1e 5ebd
000003a0: 23e7 9c3d 9a20 a0bc b485 813d 176b 32bc
000003b0: f11f 2d3d 2eb1 203c 192e cabc d0b6 ceba
000003c0: 71bf 033d 57fa c7bd 1366 a2bd 80c3 2b3c
000003d0: ecb0 38bd a982 9dbd 45d9 a03c 1f7f 483d
000003e0: cb6d 2c3d 0b41 96bd e348 57bd dd35 a03d
000003f0: a1d3 a63d 7adb 0b3d 46c7 d8bc 804d 84bc
-0.07485583 -0.027702997 0.042489585 0.049869254 -0.14844538 -0.08549026 0.03933057 -0.02231926
-0.010609471 -0.03278201 0.05258775 -0.06283342 -0.07792255 0.06908163 0.0022190863 -0.033972826
-0.00361162 -0.11707795 -0.06678809 0.014885383 0.045431383 -0.05105548 -0.031564143 0.016738066
-0.06999203 -0.029895343 -0.08568599 -0.083649814 0.042223863 0.060812823 -0.028457958 -0.03680292
-0.07642762 0.0042567872 0.074213825 0.0887264 -0.1392688 -0.034720354 0.0354664 0.03277667
-0.017277949 0.10201224 -0.04987629 -0.070479065 0.04968762 -0.030501775 0.049499307 -0.020889908
-0.09647094 -0.0896973 0.003181129 -0.11487778 0.0064993016 0.044408403 0.013931785 -0.00307647
-0.0704392 0.057491917 -0.06943559 0.017656198 0.026952306 -0.010240791 0.06317664 0.0095561985
-0.040613495 -0.023289012 0.026029984 -0.023090575 -0.0598088 0.013162868 0.031834666 0.018432518
-0.06289097 0.11162154 -0.012231818 -0.07472501 -0.07002301 -0.0077539436 0.038173895 -0.03217733
-0.07667189 -0.09014892 -0.074035704 0.015303116 0.030464184 -0.09901504 -0.04296786 0.09311371
-0.024410518 -0.025260746 -0.009437786 -0.011378458 -0.06426376 0.022152739 -0.07440664 0.016425079
0.03531447 0.007974004 0.018032007 0.05344529 -0.064079694 -0.0010262129 -0.07314092 -0.023975149
0.04798596 -0.039110173 0.032845598 -0.094566755 -0.09297901 0.082662895 -0.083954014 -0.04672606
-0.053987965 -0.07510587 -0.087179795 0.012298765 -0.0042574243 0.021938976 -0.054165844 0.045435023
-0.066726185 -0.018966373 0.028416935 0.009127606 -0.034264553 -0.082068354 -0.06849432 -0.005993425
-0.08329064 -0.0701271 -0.024092697 -0.04121873 -0.098767206 -0.105363615 -0.00012856441 0.015051631
-0.029149879 0.032193653 -0.031252418 -0.020881893 0.011181866 0.04408934 0.06447776 -0.046094045
0.016219782 -0.0010391691 -0.09049554 -0.022441993 -0.030384121 -0.01892529 0.044112906 0.06610766
0.095123775 0.068819284 -0.016704641 0.0031181378 0.038837098 0.03003218 -0.09081947 0.08414783
0.019220315 0.031999063 0.05162948 0.07702202 -0.045615204 -0.074744485 -0.061990675 0.04637749
-0.07374682 -0.025239535 0.01833014 -0.0044336077 -0.050963305 -0.032033846 -0.07694128 -0.103910886
0.03650686 -0.12248591 -0.05482694 -0.10850848 -0.038443882 -0.05303947 -0.053322844 0.102100804
0.009264951 0.005414142 0.019288767 0.030119833 0.09801852 0.0827437 -0.060594775 0.0014554487
0.011841513 -0.0069762273 0.051921304 0.01690256 -0.0015084414 -0.040775437 -0.05430397 -0.03161184
-0.021307543 0.00906205 -0.009038325 -0.035231665 0.0043717334 0.07596801 0.015770579 -0.019539908
-0.0011531897 -0.0044808285 0.04954196 -0.027083563 -0.060896702 -0.008964997 0.049014017 0.11586636
0.07678796 0.01828827 -0.014473524 0.062269412 0.04855777 0.0023615512 -0.021096963 0.09322276
0.05445666 -0.058459256 0.065012075 0.09107935 -0.06513944 -0.09771767 -0.040563058 -0.05422871
0.07661273 -0.019546796 0.0632433 -0.01088979 0.04226679 0.009807868 -0.024680184 -0.0015771035
0.032164995 -0.097645454 -0.07929625 0.010483623 -0.0450906 -0.07690937 0.019634852 0.048949357
0.042096894 -0.07336625 -0.052559745 0.078227736 0.08145834 0.034144856 -0.026462208 -0.016150236

sequential_2/conv2d_2/Conv2D f4 [64, 3, 3, 64]
00000000: cd0d 1d3d 9715 723d 8fd3 38bd 4488 11bd
00000010: ce21 c2bc 6022 f2bc bedb 143c 132d 90bc
00000020: 1e1f 92bd 45af 4f3d 1ace eab8 1ff1 da3c
00000030: 879c debc fe43 ff3c d94b cfbc f692 cc3b
00000040: 131b 943c 3d55 34bd 175a a9bc 7859 e43c
00000050: a25e 92bd baae 0dbd 5c21 ddbc e3be bcbc
00000060: a52e 353d c9bf 27bd 94a9 e9bd 89fd cf3c
00000070: ffc2 863d b5d8 72bd fb16 3f3d 846c dfbc
00000080: 4d86 83bd dc86 30bc 3f5f 92bd d424 90bc
00000090: 6635 2d3d 3a66 84ba ea74 b33c 6544 803d
000000a0: 53ba fe3c a658 35bd 3835 11bd 7e07 8ebd
000000b0: 26df f13c f511 7cbd 8000 e7bd 3b23 5abd
000000c0: 307c f63c 21f7 1fbd 8d7c 67bd 8e2a 1dbd
000000d0: 8652 83bc bca5 593d b6a6 f1bc c654 b73d
000000e0: 532e d53d a82d cabc d915 853d 1505 5e3d
000000f0: 0383 37bd 332d dfbd 15f8 1dbe caf2 96bd
00000100: c004 333e cf1e 3fbc 0a9a 823c 30dd 433c
00000110: 7637 443c 13ad 1cbd 95d4 513d 9ac3 fe3c
00000120: 8f07 1b3d 2473 28bc 3be9 b5bc 3a05 2e3c
00000130: a888 833d c3fb a73c 21ad 903d bc1e fabc
00000140: 0655 863d e497 713d 89b7 00bd 8369 333d
00000150: 65ca 2c3d 1d65 92bc 57d6 52bd b1bb c8ba
00000160: f697 433d 8cee 82bd 07ad 5ebc 7d54 0f3d
00000170: 756e 44bc 89c3 87bc 76dc 7ebd ba25 fcbc
00000180: 1300 b93c 4d69 973d 20ec 50bd cfea 31bd
00000190: 6646 e23c 2bc6 8e3d 7a14 7ebd 39f8 653d
000001a0: 5fbe 9cbd ae55 c4bd 36ec 4dbc 7357 44bd
000001b0: e55a bbbc 9214 f8ba 6565 3dbe 3613 64bd
000001c0: 92dc c5bd 1bbd 0f3d fcf2 d2bc 8372 f33c
000001d0: 07a5 1b3d abcc bbbc bbc2 dbbd 6ce5 a03d
000001e0: 23b6 d03b 0886 a03b 5c2f 86bd 46e5 0abd
000001f0: 8d9f e23b 216c fdbd 497a 60bd fd4c 2d3c
00000200: b4dc 0c3e 5712 f1bc f022 673c bcdc 573d
00000210: a9c9 45bd ee3a 9e3b 8207 e5bc ba63 223d
00000220: cedc 2bbd 2855 1b3d bc65 543d 311b 58ba
00000230: c8f4 cf3c f6c0 f93b 0683 ff3c b8f6 103c
00000240: 653a 903c 6512 ce3c 82bf ccbd df40 ebbc
00000250: 4aa0 b0bc 8032 1abc 22d2 853a 8f8a a53c
00000260: de8f 063d 2a7a fabb 4050 b3bd 3e8e a13d
00000270: ec24 90bd 5e9d 3e3d 32f9 91bd c094 a5bd
00000280: 7da7 883c 8348 a13d 649b 48bc b23a eb3b
00000290: 98ab 013d 2c64 80ba 8008 663a ec56 0fbd
000002a0: 836c 313c d1cd 4ebb 024b 82bd a298 23bd
000002b0: e5ef b23d d0de aebd daea 29bd e457 6d3d
000002c0: 2756 693c ec4f 9a3c dbcb d939 f725 0f3d
000002d0: 52fb b4bd d31d 8dbd b7fb 003d b734 41bc
000002e0: 70bb 5cbc d9f9 3b3d ece8 3cbd be7b 14bd
000002f0: 5fb6 c53c d37b a3bd 1123 02be dbc5 ed3c
00000300: d5c9 143d ee2b 99bd 6c58 d43c 7509 f9bc
00000310: 7bf8 82bd a7f9 e43c 81df 8fbd 7098 32bd
00000320: a47a e9bd 1bbb 6abd 7245 77bd 7243 243d
00000330: 9b47 06bc 9718 aa3d 2664 343d c03e 94bd
00000340: 56d0 0abd f586 453c 194a 10be dc4e 41bd
00000350: d6d5 b3bc 8945 a7bd a374 50bd 84be 8dbd
00000360: c091 6abc ce12 1e3d bc1c 8cbd 93c4 1abd
00000370: a79b 5fbd c875 b4bc 84fb 1abd d6a6 5fbd
00000380: 166d d2bc 7d07 a23d bb1a 923b 1102 08bd
00000390: 8ef7 2e3d 7c87 b53c 5bdd 67bb a0f0 a03d
000003a0: 8d18 2b3b a20a 16bd 8616 b33c cbaa 3a3d
000003b0: f8d3 35bd 3458 85bd 94db 04be 01b8 c43c
000003c0: dbed 9ebd 69eb 2bbb 8a91 c63c 7ae9 c5bd
000003d0: 2219 2c3d 4c1a 11bc 2ad7 55bd d22a de3a
000003e0: d116 a53c 151b 33bd 65f6 bdbc bd01 6e3d
000003f0: 0859 fe3c 05c7 f4bd 1d88 3abe e02d adbd
0.03834324 0.05910262 -0.045123633 -0.035530344 -0.02369776 -0.029557407 0.009085594 -0.017599618
-0.071348414 0.05070426 -0.00011196379 0.026726304 -0.027174247 0.03116035 -0.025304722 0.006243105
0.018079316 -0.044026602 -0.020672841 0.027874693 -0.07146956 -0.03459046 -0.026993446 -0.02304024
0.044233937 -0.040954385 -0.114092976 0.02538945 0.06580161 -0.0592887 0.046652775 -0.027273424
-0.064221 -0.0107743405 -0.07147073 -0.017595686 0.042287253 -0.0010101267 0.021906335 0.06263045
0.031094706 -0.044273995 -0.035451144 -0.06935023 0.02952535 -0.061540563 -0.11279392 -0.053256255
0.030088514 -0.03905404 -0.056515265 -0.03837066 -0.016030561 0.053136572 -0.02949844 0.08951716
0.10409226 -0.024679974 0.06498308 0.054204065 -0.044802677 -0.10897293 -0.15426667 -0.07370527
0.1748228 -0.01166506 0.015942592 0.011954591 0.011976114 -0.038250994 0.051228125 0.03109913
0.037849005 -0.010281358 -0.02220594 0.010621363 0.064225495 0.020505792 0.07064272 -0.030532233
0.06559186 0.058982745 -0.031425033 0.043801796 0.042185206 -0.01787048 -0.05147394 -0.0015314725
0.047752343 -0.063931555 -0.013591058 0.034992684 -0.011989226 -0.01657273 -0.062221967 -0.030779708
0.022583043 0.073931314 -0.051006436 -0.04343682 0.02762146 0.06971391 -0.062031247 0.056144927
-0.07653498 -0.095866546 -0.012568524 -0.04793496 -0.02287049 -0.0018927029 -0.1849571 -0.055682383
-0.09661211 0.035092454 -0.02575063 0.02971769 0.03799918 -0.022924742 -0.10730501 0.07856259
0.0063693686 0.0048987903 -0.06552002 -0.03391006 0.0069159926 -0.123741396 -0.05480412 0.0105774375
0.13756067 -0.02942769 0.014107451 0.052700743 -0.04828802 0.0048288023 -0.027957682 0.039645888
-0.041958623 0.03792301 0.051854834 -0.0008243798 0.025385275 0.0076218797 0.031190407 0.008847885
0.01760597 0.025155256 -0.09997465 -0.028717456 -0.021560807 -0.009411454 0.0010209719 0.020207671
0.032852046 -0.0076439576 -0.08755541 0.07888459 -0.07038292 0.046536796 -0.07127608 -0.080850124
0.016681427 0.07875159 -0.012244079 0.007178628 0.031657785 -0.0009795479 0.00087750703 -0.034995005
0.010829094 -0.0031555782 -0.06361963 -0.039940484 0.087371625 -0.08538592 -0.041483738 0.057945147
0.014241732 0.018836938 0.0004154135 0.034948315 -0.08836998 -0.06890454 0.031490054 -0.011792353
-0.013472423 0.04589257 -0.04612057 -0.036250822 0.024134813 -0.07982602 -0.1270869 0.029025009
0.036325295 -0.07479082 0.02592107 -0.030400017 -0.0639505 0.027951075 -0.07025052 -0.043602407
-0.11400345 -0.057307344 -0.060368963 0.040103383 -0.008195783 0.083054714 0.04404082 -0.07238531
-0.03389009 0.012056102 -0.14090766 -0.047194347 -0.02195255 -0.0816756 -0.050892483 -0.069211036
-0.014316976 0.038592152 -0.06841418 -0.037785124 -0.0545918 -0.022028819 -0.03783752 -0.054602467
-0.025686782 0.079115845 0.004458753 -0.033205096 0.042716555 0.02215933 -0.003537974 0.078583956
0.0026107163 -0.036631234 0.021861326 0.045573037 -0.044391602 -0.06510964 -0.12974387 0.024013521
-0.07760211 -0.0026232845 0.02423932 -0.09663673 0.042016156 -0.008856367 -0.05220715 0.0016950017
0.020152481 -0.043727 -0.02318878 0.058107127 0.031048313 -0.119520225 -0.18215986 -0.084560156

sequential_2/conv2d_3/Conv2D f4 [64, 3, 3, 64]
00000000: dca8 003d b32c 7ebd 11b6 263d 8edb 65bd
00000010: 8ea3 0ebd aa2c 87bd a458 f2bc 51b8 bcbc
00000020: c7eb abbc 4c3b 2a3c c923 aebc 1384 8f3d
00000030: 5510 4abc f24a dabc 4fe9 5f3c 59de 2b3c
00000040: b1dd f2bc c7e8 6cbd 984d 3e3d f40d 223d
00000050: 6af0 adbd 95f1 ef3c c3f1 843b c7eb 8bbc
00000060: 3a5f 39bd 3625 4e3d dfd3 92bc b1c5 6ebc
00000070: 7bd0 83bd 3371 79bc 8dc3 98bd eaca e4bd
00000080: ead9 893d 94db b7bc 6cd3 573c 5d4c 833d
00000090: 87dc 423d f340 82bd 7a42 62bd 3f1f 12bd
000000a0: 4365 94bd 5718 73bd 6d01 1ebb cd7d 443d
000000b0: 8e1d 83bd db80 493c f531 8ebd 4e23 08bd
000000c0: 48bf 223d cf42 6f3d 5b5f abbd b78a 7f3c
000000d0: 81ad bc3d 4ef6 833d e789 41bd eb97 a4bb
000000e0: 21f4 94bd b7f4 60bc a450 1dbc 442d 79bd
000000f0: bf2f 4c3d 1ee2 c23c 203c 1d3d 8bb0 f0bc
00000100: ff52 e93c cd63 febc 01b0 8f3c 04a3 ccbb
00000110: 2857 183d 3b4a 0fbc d7a6 5fbd 5d73 a0bd
00000120: bf65 f93c d084 28bd dc46 d03c 0d2f 2abc
00000130: 3b21 5fbd 9218 823d 60d8 d83d b20a 0abc
00000140: 36dd 68bd 751a e8bd 0722 2ebc 4053 63bd
00000150: e666 88bd 1b2a b7bc 6c26 5a3c 646f d6bc
00000160: 245e b4bc 03a2 8dbc 62ba f2bc 0d67 7d3c
00000170: c954 89bd 62f2 453c 5c9a 803c 129d 5cbd
00000180: 8794 b53d 80aa cdbd a031 5ebc c627 f6bc
00000190: 8275 a9bc d8f0 34bd f076 0bbd 18d6 f43c
000001a0: dafd 593d df78 793c ef09 10bb a5b4 66bc
000001b0: 1ea5 d83b 7d7c a43d 8f2f 96bd 358f b53a
000001c0: 2c55 e5bc 63b2 8d3b c81b 71bc 8356 853d
000001d0: 90c7 5a3c 8d25 a23d c408 04bc 4531 13bd
000001e0: a890 29bd 7a09 4fbd ae94 32bd 5447 fa3c
000001f0: 79a3 633d bb17 153c 5ae2 2bbd 3345 553d
00000200: 5e9c 093e de97 97bd 4661 473d 2c8e 6b3d
00000210: d97b a6bd 2a05 babc 5a04 2ebd 4764 813d
00000220: 4801 88bd d915 81bd bf9b 063d 9c7f 9bbc
00000230: 4d31 26bd 0bf6 7fbd 548f 923d 7a8b 0ebd
00000240: 738a 08bd 4120 9f3c e0c0 9ebc a2a9 173d
00000250: 2e78 373d bee2 533d 5f06 213b e0c1 933a
00000260: 270c 43bd 4be5 8f3d 606f 723d 6d73 1dbd
00000270: af23 a83a 29e1 9e3c 3079 b2bd 32b8 61bd
00000280: 9365 db3d 36f5 debd 34bc ca3d 93fa 8e3d
00000290: 6b93 13bd e1ea 1e3d 82b8 1d3d a51a 64bd
000002a0: d527 03bd 366b 31bd 248e 023d 34b0 72bd
000002b0: 80c9 4e3d c51c c53d af5a 8c3c 2fb9 e5bc
000002c0: 8d4f 70bd bdf3 233d 361c ba3a edad ae3c
000002d0: 139e 5a3c 1783 22bd f6ba 23bc 707f 283c
000002e0: 6d42 84bd 8626 85bd 716d afbd d566 193c
000002f0: 6b1d e13c 5bc9 843b 3b76 f83b 1880 2bbd
00000300: afa8 f63d aeb9 9dbb aa1b 743c ef4d dd3c
00000310: c886 3b3d 3f2f c2bc 5931 9ebd f84d 733d
00000320: 9ca7 0ebd c6e2 78bd 0d3c 08bd d7e9 3a3d
00000330: a1f2 97bd 602f 72bc a125 083d 0d16 193d
00000340: 264d b5bd e73d c3bd 5e9b 913d f6bd 943d
00000350: 162f 50bd 7e5f b8bd b359 80bd a18c e73c
00000360: 666d e33b 246c 2abd 886d af3d e88b 723c
00000370: ffea c639 fa00 e4bb d772 f43c d461 62bc
00000380: 0efa 353d cf74 e3bd b08e 90ba 4cf2 6f3d
00000390: efa7 63bd f1ae fcbd e9db febc 59e3 d9bc
000003a0: 8a12 2abd 5a71 43bc 1d2c 243d 3594 cebb
000003b0: 1885 883d 0c0f 75bc d87a 92bd 09dc a4bd
000003c0: b5ab 003d 8cc4 4f3d 2663 993c 67c8 743d
000003d0: 9704 e83c e48d 323d fef0 b9bc 029a 293b
000003e0: 336f 113c 4c99 70bd e5b2 ddbc 0d42 b2bd
000003f0: b07b eb3c d65f fb3d d6e0 493d c278 2c3d
0.031411037 -0.062054347 0.040700976 -0.056117587 -0.034823947 -0.06600316 -0.029583283 -0.023037108
-0.02098645 0.010390114 -0.021257298 0.07007613 -0.012332995 -0.026647065 0.013666465 0.0104900235
-0.029646726 -0.05783918 0.046460718 0.039564088 -0.08493121 0.02929 0.0040571406 -0.0170802
-0.04525683 0.050328456 -0.017923294 -0.0145735005 -0.06436249 -0.015224743 -0.07459173 -0.11171515
0.06731017 -0.02244357 0.0131729655 0.064110495 0.047573593 -0.06360044 -0.05523918 -0.03567433
-0.07245877 -0.059349384 -0.0024109737 0.047971535 -0.064021215 0.012298788 -0.06943122 -0.033236794
0.0397332 0.058413323 -0.08367797 0.015597037 0.09212781 0.06443463 -0.047250655 -0.005022993
-0.072731264 -0.01373022 -0.009601746 -0.060834184 0.04985022 0.023789462 0.038387418 -0.029381057
0.028481958 -0.031053448 0.01753998 -0.006245019 0.037192494 -0.008745725 -0.05460247 -0.07834504
0.030444024 -0.041142285 0.025424413 -0.010387194 -0.05447505 0.06352343 0.10588145 -0.0084254015
-0.05685159 -0.11333171 -0.01062823 -0.055499315 -0.06660251 -0.022358945 0.013314825 -0.026176162
-0.022017546 -0.017289167 -0.02962989 0.015466464 -0.067056246 0.012081714 0.015698604 -0.05386073
0.0886622 -0.10042286 -0.013561636 -0.030048262 -0.020685915 -0.044175 -0.034048975 0.029887244
0.053220607 0.015226572 -0.0021978577 -0.014081155 0.0066114804 0.08031557 -0.0733329 0.0013851883
-0.027994715 0.004324244 -0.014716096 0.065106414 0.0133532435 0.079173185 -0.0080587305 -0.03593566
-0.04139772 -0.050546147 -0.043598823 0.03055159 0.05557582 0.009099896 -0.041963913 0.052067947
0.13438556 -0.07402013 0.04867675 0.057508633 -0.08129091 -0.02270754 -0.04248462 0.063179545
-0.066408694 -0.06302995 0.032863375 -0.018981747 -0.04057436 -0.062490504 0.07156244 -0.034800984
-0.03333516 0.01942456 -0.01937908 0.03702701 0.044792347 0.05172991 0.0024570448 0.0011272989
-0.04761901 0.07026156 0.059188247 -0.038440157 0.0012828017 0.019394474 -0.08714521 -0.055107303
0.10712733 -0.10886614 0.09899178 0.06981387 -0.03602926 0.038798217 0.03850604 -0.055689473
-0.03202041 -0.043315135 0.031873837 -0.05925007 0.050485134 0.09624628 0.017133085 -0.028042404
-0.058669616 0.04002737 0.0014199081 0.021323169 0.013343352 -0.0396758 -0.009993305 0.01028429
-0.06457982 -0.065014884 -0.08565796 0.009362896 0.027479848 0.0040523238 0.0075824535 -0.041870207
0.120438926 -0.0048133945 0.014899174 0.0270147 0.045782834 -0.02370417 -0.07724256 0.05940053
-0.034827814 -0.060763143 -0.033260394 0.045633163 -0.07419325 -0.014781803 0.03323901 0.037374545
-0.088526055 -0.09533291 0.07109712 0.07262795 -0.050826155 -0.09002589 -0.06267109 0.0282653
0.0069405315 -0.041607037 0.08565813 0.014803864 0.0003794059 -0.006958124 0.029839916 -0.013817269
0.044427924 -0.11106264 -0.0011028852 0.05858068 -0.055580076 -0.12338055 -0.03111072 -0.026597666
-0.041521586 -0.011928881 0.040081132 -0.0063042887 0.066660106 -0.014957201 -0.07152337 -0.08049781
0.031413753 0.05072455 0.018724035 0.05976143 0.028322501 0.04359235 -0.022697922 0.002587915
0.00887661 -0.058739945 -0.027062843 -0.087040044 0.028745502 0.12274139 0.049286686 0.04210735

sequential_2/conv2d_4/Conv2D f4 [64, 3, 3, 64]
00000000: e47e 0fbc 859b 91bc f26b 4bbc 83c1 a6bd
00000010: 14f6 14bc bde3 583c 6c33 693c a293 c93d
00000020: a791 053d 7890 c73c 6e29 ac3b 1022 243d
00000030: cb7d f6bc aa2d ae3d 8c3d 0fbc 232b 0e3d
00000040: 03ab e13c 9f68 99bb 8b4a f53c d181 7e3c
00000050: 2ef3 56bd 0f5b bb3d f3b1 1f3d b3c1 e6bc
00000060: 5c89 8fbb d5d5 783d c2e7 b43d 4b92 923d
00000070: eb73 473d 20d6 4ebc a613 653d b2f7 ac3d
00000080: f0c5 e73c 6759 cb3d a8d8 79bc cad0 243b
00000090: 96cf e53c f7ed 14bc d091 be3d c54b af3d
000000a0: 7fda 2a3a bcf6 baba eae5 cdbc 0126 9a3d
000000b0: a2e2 4c3d 415e 0e3c b5ef bebc 2185 26bd
000000c0: 044e 99bc ab10 453d 06d2 db3c d5c8 c8bb
000000d0: 6c59 50bd a111 353d 2690 2fbd 5b6a 8e3b
000000e0: 720f b53b 7677 2a3d 656a 8ebc b4a5 5bbd
000000f0: a335 6f3d 52e9 34bd e908 07bd 299f 0fbd
00000100: 67a1 f6bc 5691 9c3d 800c 943d 6999 5abd
00000110: 39bc 513d 5f8f 1a3d e99a 96bb cd15 883d
00000120: adec bb3c 854b 5c3d b863 ae3d 762a a3bc
00000130: 0248 193c fcd6 f43c 3852 abbc 0107 1cbd
00000140: ecd5 e5bb d614 cf3c b5f6 55bd 3b0a 303c
00000150: 468f ccbd 6f9d a93d 5c4c 003c 56ae aa3d
00000160: 0bac 68bc f6a3 303d 483f 8c3d 016a 0abd
00000170: 680f d1bd a059 9abc abc9 e63c 8543 fbbc
00000180: 4f15 c93d 9bff a53d c694 0c3d 3b6e 5e3c
00000190: f33f a13c 29f8 ee3c 2fa1 b9bc 63a8 973c
000001a0: 69a3 823c c122 d13c 875a 39bd 6682 433d
000001b0: 5eb9 7f3b a8b2 e23b ff76 623d a100 27bd
000001c0: 4532 b0bc d22a 85bc 181a 443c ac25 473d
000001d0: a5dd 983d 1d44 5cbd a088 513d 850f 1d3d
000001e0: dee6 e7bc 4343 b33d 4fe1 9e3d 789e 3d3d
000001f0: a5a4 49bd 0c3c 073c d18b b0bc 4de8 b9bc
00000200: 79dd 97bc b694 c03c 70ab ccbc 9113 28bd
00000210: 2db8 29bd c080 96bb c15d c33c c8b5 733d
00000220: 0f2b fbbc 845d 803b 9613 a73d aee1 8a3d
00000230: a4aa 32bc c5c9 d53c 4804 143d 284a 5abd
00000240: 6e6e e43c 05ea c53d a70f 393c 61d9 bf3d
00000250: 6b7e f13b f70a a3bc c512 a73c 69f0 3cbb
00000260: 3ba3 ad3d 85c7 d33b d986 a73d 41d5 583d
00000270: a56b 193d 0b49 bdbc f2ef de3c 424b 06bc
00000280: 1a1e 9c3d fc87 743d 9376 c23b 2374 e03c
00000290: 6bc0 863c 16b6 40bb f0e2 bf3c ed65 803d
000002a0: d3b9 9a3b b29b 2ebd 65f3 723d 4055 f93b
000002b0: 80da b1bc 14e4 e1bc e41b 933d ccc8 623d
000002c0: baa8 d6bc 30aa 8e3d 56de 3d3d a8b9 8a3d
000002d0: 2857 b8bc 74d3 e1bc b450 35bd d121 ba3d
000002e0: c776 133d d297 1e3e 8890 27bd 5bf8 883d
000002f0: c7a7 b03d 67a8 323d f2a3 613d 1b1c 833d
00000300: 4998 1d3c 5032 2b3d b643 3e3d 45bc e6bd
00000310: 03ee b93d f998 d43d b4d3 763b 7566 89bc
00000320: c688 0d3d 73d2 02bb 1352 213c e151 8f3d
00000330: 35c5 f3bc 61ad 823b ba61 c139 efed af3b
00000340: 7aff 693a 6724 05bd 27b7 d6bc 3f88 5c3d
00000350: d4ca a2bd 3a0b 2a3d c5b5 673d 97cc 1a3d
00000360: 9062 3fbd 69cb 25bc 271a 583d e65b 9c3c
00000370: 0815 5b3d 6c7a 14bd 685b cbbc c618 cfbc
00000380: 6e8d 963d 2cff eebb 7fc9 44bd 6786 913d
00000390: b6eb 8b3d 2680 513c 9551 593b 6d9b 733c
000003a0: eede 55bd ec2e 223d e2c5 2dbd 7f26 c83d
000003b0: ae4a 3dbd 0418 6f3c 52c2 0a3c ea43 2b3d
000003c0: 0864 253d 9b9e 8c3c 0455 6dbc 4922 83bd
000003d0: ab4f 573c 31e8 853c dc97 84bc 15a5 8b3d
000003e0: f2fe 103c e418 b5bc d84c f13c 0117 83bc
000003f0: 0b72 2ebd 3c4d 5bbc e520 b83d 8a94 c43c
-0.00875828 -0.017774353 -0.012415873 -0.08142378 -0.009091873 0.013237891 0.014233451 0.09842612
0.032609608 0.02436088 0.0052539622 0.040071547 -0.03008928 0.085048035 -0.008742701 0.034709107
0.027547365 -0.0046816613 0.029942771 0.01553388 -0.052478008 0.091482274 0.038988065 -0.028168535
-0.004380388 0.0607508 0.08833267 0.071568094 0.048694532 -0.012624294 0.05592694 0.08445682
0.028292626 0.099291615 -0.015249409 0.0025148862 0.028053086 -0.009089938 0.09305155 0.08559374
0.0006517544 -0.0014264206 -0.025134046 0.0752678 0.05002082 0.008689464 -0.02330766 -0.040654305
-0.018713959 0.0481116 0.026833545 -0.0061274567 -0.05086653 0.044206265 -0.04286208 0.0043461747
0.005525523 0.041617833 -0.017384717 -0.053624824 0.05840076 -0.044167824 -0.03296748 -0.035063896
-0.03010626 0.07644908 0.07228947 -0.05336896 0.051204894 0.037734386 -0.0045961034 0.06644783
0.022940004 0.05378296 0.085151136 -0.019917708 0.009355547 0.029887669 -0.020913228 -0.038092617
-0.007014027 0.02527849 -0.05223723 0.010744627 -0.09988265 0.08281981 0.0078307055 0.08334033
-0.0142011745 0.043125115 0.068480074 -0.0337925 -0.10208017 -0.018841565 0.028172335 -0.030671844
0.098185174 0.081053935 0.03432157 0.013576086 0.019683814 0.029171066 -0.022659866 0.01851291
0.01594706 0.025529267 -0.04525235 0.04773178 0.00390204 0.00691827 0.055289265 -0.040772084
-0.021508345 -0.01625577 0.011969112 0.04861991 0.0746415 -0.053775895 0.051155686 0.03834488
-0.028308328 0.087530635 0.07757818 0.046293706 -0.049229283 0.008254062 -0.021551045 -0.022693777
-0.018538224 0.02350841 -0.024984092 -0.041034285 -0.04143541 -0.004592985 0.023848416 0.059499532
-0.03066018 0.003917398 0.081580326 0.06781326 -0.010904942 0.026097188 0.036136895 -0.053293377
0.027884688 0.09663776 0.011295236 0.093676336 0.0073698065 -0.01990269 0.020394692 -0.002882982
0.08478399 0.0064629936 0.08180017 0.05293775 0.037456173 -0.023106119 0.027214024 -0.008196654
0.07622929 0.059699997 0.0059345453 0.027399128 0.016449174 -0.0029405407 0.023423642 0.06269441
0.004721859 -0.04262895 0.05931415 0.0076090395 -0.021710634 -0.027574576 0.07183054 0.055367276
-0.026203502 0.069660544 0.046354614 0.06773692 -0.022502497 -0.027566649 -0.044266418 0.09088481
0.036001947 0.15487602 -0.04090932 0.06687995 0.08625751 0.043617632 0.05508799 0.06401845
0.009618827 0.04179603 0.046451293 -0.11266378 0.090786 0.1038074 0.0037662806 -0.016772488
0.034554265 -0.0019961863 0.009846228 0.06998039 -0.029757122 0.0039879535 0.0003688464 0.00536894
0.00089263136 -0.03250542 -0.02621038 0.053840872 -0.07948843 0.041514613 0.056569833 0.03779277
-0.046724856 -0.010119298 0.052759316 0.01908679 0.053486854 -0.036249563 -0.02482386 -0.025280368
0.07351194 -0.0072936025 -0.048043724 0.07105713 0.06832068 0.012786901 0.00331602 0.014868599
-0.052214555 0.03959553 -0.042425044 0.097729675 -0.0462138 0.014593128 0.008469181 0.041812815
0.0403786 0.017165473 -0.014485601 -0.06403024 0.013141553 0.016346069 -0.016185693 0.06818596
0.008849846 -0.022106595 0.029455587 -0.01600218 -0.04258923 -0.013385113 0.08990649 0.02399661

sequential_2/conv2d_5/Conv2D f4 [64, 3, 3, 64]
00000000: ca1b 513d dc98 6dbc 71fb 54ba 098c 85bd
00000010: 780f 1dbd 9b0f 983d 7246 a8bc dafa 0b3e
00000020: 8232 14bd b60d 243d b592 21bd 008f 1d3a
00000030: a7a6 c3bb 43b9 39bd 1852 4fbd 3d19 93bd
00000040: 2a66 453d 45bf 62bd 3a76 313d 7e27 aebd
00000050: 9b12 7dbd 7549 b03c fbe4 303c 9ee6 c93c
00000060: 03e9 91bd 5519 8dbd 523e c43c 871a 8e3c
00000070: e670 563d 89e5 f8bc 463f fdbc 377f 703d
00000080: b35e 0ebd b83d c9bc 6482 443a e705 11bd
00000090: 5be8 873c 6a0b be3d c250 c53d 98bf 3a3d
000000a0: 166b 87bd 2df0 bebd b9db 34bb a34e a1b9
000000b0: d5b0 e93d b09d c63c d2a2 1ebd a76c 4ebc
000000c0: 6580 12bb 579a 9fbd 0d70 8a3d 0c0b a8bd
000000d0: 786b c93c 5c09 f4bc 0e18 0fbd b059 473d
000000e0: d774 b83c 979d b73d 303c 5f3d 2f11 80bd
000000f0: 71a9 67bd 4821 d1bc cc4c 193d a5d0 273c
00000100: 6e13 643a d54b 1b3d 0cc2 983d 758a 5abd
00000110: 8c3b 0abd 9ce1 553d 88a8 c5bc 5c4f e03d
00000120: a5d9 9b3d 939b 463d 12d2 b1bd a084 8d3c
00000130: 6b1e 083c c64f 52ba 7650 26bd abb4 5bbd
00000140: 95b6 c1bd fc09 c8bd 1030 b3bd 57ef 4fbd
00000150: 2877 df3c dd2b dcbc 2821 c83b 15b4 9bbd
00000160: f7c8 d5bd 0643 4b3d ef9b c83d b6ac 84bd
00000170: d4ac 033d 4a88 8d3d 0c05 87bd fccc c63b
00000180: 52ea c7bd 3fc8 c7bc e040 df3c 827a 6ebd
00000190: 7f07 d73c 33bb 9e3c 1ebd a0bc d207 9fbc
000001a0: 2afb 4dbd fccc d7bc 7eae d03c 0a73 213d
000001b0: 91ca 23bd 742d 313c d9f6 073d 6188 febc
000001c0: 3382 543d 8cf9 74bd 18f9 d7bc 4c15 b5bd
000001d0: 7e29 103d 92e6 8f3d 0ee2 91ba f7ad bcbc
000001e0: b842 703c 15f2 2a3c 7c70 c0bd cd8c b6bc
000001f0: fe65 1ebd 117f 78bd 79ac 0d3d b8ef 333c
00000200: 359a e7ba 149c 6d3c 1985 413b 9f71 c8bd
00000210: fef7 393d 6f7a 9dbd e6f4 2abd 8c92 95bd
00000220: f806 84bd df5a d53c f03f 23bc b0e9 b0bb
00000230: 6767 133d 6466 83bd ce2f 0dbd 68fc 7e3d
00000240: 4d96 043b 1f0d 1abd 05e6 06bd 721e b9bd
00000250: ebc3 94bd f5cc 3bbd 0151 ecbd d653 d93b
00000260: c200 a5bd 45c3 7abd 95db 9bbd 23c6 d7bd
00000270: faf7 043d b9e7 abbd 46d7 45bc 1c75 11bd
00000280: 6ee4 1ebd 1857 0e3c f072 ffbc 4cb5 f3bd
00000290: 3f15 513d fea5 37bd ec40 b43a 807f 863a
000002a0: 4058 babc 55af 85bd 289e a9bc 95b9 17bb
000002b0: c540 893c 2b65 8cbd fb40 93bd 4d51 a03d
000002c0: ec30 3fbd 0897 3bbc 004b 7fbd 3503 7b3b
000002d0: 853b 2ebd 6beb c4bc ea8e f73b 80cc 6ebb
000002e0: 05b2 543d c99b 873d 6623 a73c 3a4d 2ebd
000002f0: 7eab 083d 6278 6abd f411 9bbd c2f5 6d3c
00000300: 70f7 2b3d 5782 0abc cb12 403d d55d 763c
00000310: 6b1a dd3c dc87 973c 3c80 66bc 309f c33d
00000320: 8709 39bd f091 c23d fbcb f6bb f4d4 173d
00000330: 054c 02ba f1f0 213c 249a f0bc 6613 4f3d
00000340: f98a 7b3d 882d 033d 1a4f 953d 0797 65bd
00000350: 1e06 1abd 071e 1ebd 7147 7a3c 9b59 63bc
00000360: 4421 963c 2e8a acbc f194 b43c d6fc c73d
00000370: 4004 9d3a 1e95 6b3d 8d7c 9d3d e53d 04bd
00000380: 6301 5d3d 1adf 0b3c bbb2 103c 0160 8d3d
00000390: 1e7a 403d a419 213d e466 873d df98 bcbc
000003a0: 767b 32bd 0512 15bd 2082 8b3c f77e c73c
000003b0: 78a3 88bc 90e3 b4bd d902 813c 274e 4f3d
000003c0: 5d87 b8bc 0291 9fbc 886a 63bd 060b 603d
000003d0: 4a13 2fbd fa1e 4cbd cd7a 9f3c 2698 2cbd
000003e0: a8d2 e13c 6895 26bd 71a9 e03d 9de6 e0bd
000003f0: 8f49 73bd f212 8a3d 76d8 4d3c 8864 dfbb
0.051051892 -0.014501777 -0.0008124626 -0.0652085 -0.03834483 0.074248515 -0.020541403 0.13669911
-0.03618098 0.04005214 -0.03944655 0.00060103834 -0.0059707942 -0.045342695 -0.0506154 -0.07182548
0.048193134 -0.05535819 0.04332564 -0.08503626 -0.06178532 0.021519402 0.010796781 0.0246461
-0.071245216 -0.06889597 0.023955498 0.017346634 0.052353762 -0.030382888 -0.03091396 0.05871507
-0.03475828 -0.024565563 0.00074962364 -0.03540602 0.016590288 0.09279521 0.09634544 0.045592874
-0.06612222 -0.09323154 -0.0027596785 -0.00030766902 0.11410681 0.024245113 -0.038729496 -0.012599147
-0.002235436 -0.0779311 0.06759653 -0.08205232 0.024587378 -0.02978962 -0.03493505 0.048669517
0.022516651 0.08965605 0.05450076 -0.062532775 -0.056558076 -0.025528565 0.037426755 0.010242616
0.0008700405 0.037914116 0.074588865 -0.0533547 -0.033748195 0.05221711 -0.024128214 0.109526366
0.07609872 0.04848821 -0.08682646 0.017275155 0.008308033 -0.00080227514 -0.040604077 -0.053639095
-0.09458653 -0.09767529 -0.087494016 -0.05076536 0.027278498 -0.026876384 0.006107468 -0.07602707
-0.104387216 0.049624465 0.09795367 -0.064782545 0.032147244 0.06910761 -0.065927595 0.0060669165
-0.0976149 -0.024387477 0.027252614 -0.0582223 0.026248692 0.019376373 -0.019621428 -0.019412909
-0.050288357 -0.026342861 0.02547383 0.03941635 -0.039988104 0.0108140595 0.033194397 -0.03107089
0.05188198 -0.0598083 -0.026363894 -0.08841953 0.03519582 0.070264 -0.0011129992 -0.023032172
0.0146643445 0.010433693 -0.09396455 -0.022283936 -0.038671486 -0.060668055 0.03458831 0.010982446
-0.0017669859 0.014502544 0.0029528795 -0.097872965 0.04540252 -0.07689368 -0.04173746 -0.07303342
-0.06446642 0.026044307 -0.009963974 -0.0053989515 0.035987284 -0.06416014 -0.03446942 0.062252432
0.0020231188 -0.03761017 -0.032934207 -0.0903901 -0.07263931 -0.04584976 -0.11538888 0.0066323085
-0.08056785 -0.06122138 -0.07610241 -0.105358385 0.03246305 -0.08393807 -0.012075251 -0.035512075
-0.038792066 0.008687757 -0.031182736 -0.11899814 0.051045652 -0.044836037 0.0013752258 0.0010261387
-0.022747159 -0.065275826 -0.020705298 -0.0023151387 0.016754517 -0.06855234 -0.071901284 0.07828007
-0.046677515 -0.011449583 -0.062327385 0.0038301472 -0.04253723 -0.024038037 0.0075548785 -0.003643781
0.051927585 0.066215105 0.020402621 -0.042554118 0.033366673 -0.057243712 -0.07571784 0.014523925
0.04198402 -0.008453927 0.046892922 0.01503702 0.026990136 0.0184974 -0.014068659 0.09551847
-0.0451751 0.095004916 -0.0075316406 0.037068322 -0.0004970434 0.009884105 -0.029370375 0.05055561
0.06141183 0.032025844 0.07290478 -0.056052234 -0.03760349 -0.038602855 0.015275822 -0.013876344
0.01832641 -0.021061983 0.022043677 0.097650215 0.0011979416 0.057515256 0.07689772 -0.03228559
0.0539564 0.008537078 0.008831675 0.06903077 0.04699146 0.039331093 0.06611422 -0.023022113
-0.043574773 -0.036394138 0.017029822 0.024352534 -0.01667951 -0.088324666 0.015748428 0.05061164
-0.022525484 -0.019478325 -0.055521518 0.054698013 -0.042743005 -0.04983423 0.019467736 -0.042137288
0.027566269 -0.04066983 0.109698184 -0.10981486 -0.059396323 0.06741895 0.012563815 -0.006817404

sequential_2/dense_1/BiasAdd/ReadVariableOp f4 [3]
00000000: 8132 80bb 0449 cf3c 90fd 19bd
-0.0039122705 0.025303371 -0.03759533

sequential_2/dense/BiasAdd/ReadVariableOp f4 [64]
00000000: 7f02 88bb 7a16 60bc 523a a8bc 354e 8abb
00000010: 4fc2 a73c ca58 c3bc 9abe 65bc 2838 643c
00000020: a47e 67bc 1292 1dbc 18c9 1fbc c398 323d
00000030: 327f a33c ad9f ed3c c1b7 8e3b 6aba 66bc
00000040: 1a76 113d 059c 6f3b 210d 77bb 6c20 153d
00000050: 966b 6fbc 0ef0 e8bb e5ce 493d a723 63ba
00000060: 0f15 00bd 6582 dc3c cb2a ed3c 73b2 9fbc
00000070: 967f b63c 2999 86bc 4847 e6bc 0543 a33c
00000080: e3d4 5cbc 999a e6bc 33b7 f3bb 58b1 503d
00000090: 2726 22bc e8b2 063d 9c31 33bd d3d6 303d
000000a0: 0957 173d 9d88 ebbc 9ec9 beba d404 983c
000000b0: 02d3 e9bc 75cf 813c 75d8 debc 5978 3a3d
000000c0: 16f5 d6bb 8a4f e0bb 041e 823c 7eb2 55ba
000000d0: fe8b 103c f16f 79bc 3142 8bbc f4b2 203d
000000e0: 0df8 75bc 305b 133d 5dc4 ee3b a29f d53b
000000f0: 090a 3cba 68d1 edbb b3c3 d0bb 0e7f 88bc
-0.004150688 -0.013677234 -0.020535622 -0.004220749 0.020478396 -0.023846049 -0.014022494 0.013929404
-0.014129315 -0.009617345 -0.009752534 0.043602716 0.019958112 0.029006803 0.0043554013 -0.0140825305
0.03551302 0.00365615 -0.0037697034 0.036407873 -0.014613053 -0.007108695 0.049269576 -0.00086646754
-0.031270083 0.026917646 0.02895107 -0.01949427 0.022277635 -0.016430454 -0.028110161 0.019929418
-0.0134784905 -0.02814989 -0.0074376105 0.05095038 -0.009896792 0.032885462 -0.043748483 0.043173622
0.036948238 -0.028751666 -0.0014555936 0.01855699 -0.028543 0.015845994 -0.027202824 0.04552493
-0.0065599782 -0.0068454193 0.015883453 -0.00081519026 0.008822439 -0.015224443 -0.016999336 0.039233163
-0.015012753 0.035975635 0.007286592 0.006519274 -0.0007173126 -0.007257629 -0.0063709854 -0.016662147
